data.pth (torch, 16127 bytes, 6 tensors)

l1.weight f4 [8, 193]
00000000: 0fb4 c03e 50ed 183e 3e28 1f3e 8382 3ebe
00000010: e6aa 3c3e 2104 8d3d 749d 97be 5875 7a3e
00000020: 5ab1 6cbe 0c07 233e 7658 003e 9dd4 92bb
00000030: 6ae6 dc3d a6e6 1b3e da40 f23d 7090 69bf
00000040: be47 52bc 619d f5bd b3d0 a5be b8cb 013e
00000050: 35b1 98be 8e1c 103e a495 703e 129c 9f3d
00000060: aac4 1abf 9b25 44be 0531 0d3f 81ac 75bf
00000070: 6ab7 1d3f c77b de3c de12 fc3e d9ec b13d
00000080: 398c 8f3d 2ce1 f4bf a15f cdbf e6d3 75bf
00000090: fc87 183f b4ad 873e 233b cf3e 9cf4 8f3d
000000a0: 9a9c 6cbf ecfa 7c3e 8712 853e 5dd0 ab3e
000000b0: c41e 12bf 4f8d 8bbf 048b a4be 7b7f 713f
000000c0: 4b0a 91bd 39cb 5fbe b40a 43bf fa14 2a3e
000000d0: 849f 0cbe 6c04 85be a1c7 193e 055d 203e
000000e0: f617 ccbd 98af 42be e2d2 b6bf 0dba d13e
000000f0: 461b 1f3e 604f c4be 79c2 5f3e 9c93 57be
00000100: 6595 6f3e f5ea 3c3f 498b 82bd 029e 463e
00000110: 6491 53be 877a 84bd 07fa 8abe 2fa1 c7bf
00000120: 58b7 acbe 925c 423e f0b6 943d 0fe1 703d
00000130: f253 57be 68fb 433e 2208 013d cae3 083f
00000140: d065 8e3e 1228 47be 105b 0a3e 381f e8be
00000150: 93fc 6f3e d5d1 ebbe c1b1 ecbe d625 4e40
00000160: addd b2b9 566b a23d 2398 8abf 7dc4 073e
00000170: 3898 073e 07b9 e0bf 5ccf d73d 54c2 82be
00000180: be40 1bbf 6a94 cfbc feb2 1c3e 3606 6bbe
00000190: 4212 5abf 5672 a3bd fcf6 8ebe 8636 88be
000001a0: acf9 843d 95cc 66bf df54 c8bf e65f 72be
000001b0: 5209 4b3e 35f9 013e 4b9c 33be ce0e 023e
000001c0: 09ac 7b3e 0ca6 89bf c14c b23e 71c1 4abd
000001d0: 89b2 c5be aa19 09bd f901 47bd 616d f9bd
000001e0: b853 013f 5883 853e 1037 323d 87c3 eabd
000001f0: 0d13 f2bd 9aa1 133f 6295 56be 1be6 2abe
00000200: 8ae4 1b3e 8a29 37ba efa9 33bf 381a 89bf
00000210: 43be 433e ceb5 3b3f ae05 e0bc 78f0 db3f
00000220: 9bf6 0c3f 886c 153f 6bf4 323d 4c87 c03d
00000230: 0e8f 7e3e 9d34 dd3f 8e25 81be 379b e33f
00000240: 098b 8fbf 9125 4d3e 96bb 523f 7390 adbf
00000250: 14a3 c7be 3ffb 553e adee 183f 56c8 7e3e
00000260: 9690 6dbe 0bee d6bf 76cb 193f a9a0 78be
00000270: 7040 93be 1b36 8740 966d 253e 8d91 bbbd
00000280: 1197 1c3f bd42 74bf 1e51 3ebe ebf0 d13e
00000290: 1853 103e dbc4 93bf 8c7b e3bc f4ef e4be
000002a0: 856e e73f 154b 423f db7a c43e ea65 7b3d
000002b0: 6117 8bbe 6f72 95bf 08c7 4b3e 923e fcbc
000002c0: 7bb3 553e d06e 9bbe 1697 cabe e274 c7bf
000002d0: 366f 30bf f776 7ebe 38e0 8b3d 0849 98be
000002e0: dfdc bd3d cbaa e1be 9d50 12bd 357f 2d3d
000002f0: 8f5d 3cbe dc48 cebe 94a1 b13c 4e83 a23e
00000300: 347c adbe e38d fabe b876 1c3f 9aaa 153f
00000310: 3db5 d5be 2f32 3a3f 2a84 923f f8bb 863f
00000320: b0a2 8f3e cd6b 843f c579 393f 20fb 873e
00000330: a87d 4b3f 5611 163f bcf0 723e 3b31 7f3e
00000340: 9b1a ba3f e294 3d3f 3e5f 443f 4ce7 893f
00000350: 702a 8f3e bafa cd3f c6a9 803e e64f 823e
00000360: 6011 b63f d80f 0341 316c 333f 1eb5 1ebd
00000370: f735 ae3f 1382 edbe 5e8b d0bf b39b eebe
00000380: 2a08 363f 8974 c83d 8a99 e540 a64c 9940
00000390: 3937 933e 5d12 e6be a94d 46bf a475 5fbf
000003a0: b833 253e 8112 5240 3af0 b03e e503 40bf
000003b0: f9c3 3a3f 204d 3840 d4a6 933e 0655 7e3f
000003c0: dee0 d73f 0533 a140 cf81 3940 4dd0 eb3f
000003d0: 19a1 a63e 887d 6cbf 854f 863f 47ce aa3f
000003e0: da0f b03f 1730 333e 2f1a 693e 3f2a 0cc0
000003f0: 7fc0 19bf 445f 873e 7b2e be3e 2fa2 923e
0.37637374 0.14934278 0.15542695 -0.18604474 0.18424568 0.06885553 -0.29612315 0.24458826
-0.23114529 0.15920657 0.12533745 -0.004480912 0.107861355 0.15224704 0.11828776 -0.9123602
-0.0128344875 -0.11992908 -0.32385787 0.12675369 -0.29822698 0.14073393 0.23494583 0.0779344
-0.60456336 -0.1915497 0.5515292 -0.95966345 0.6160799 0.027158631 0.49233145 0.08687753
0.07009167 -1.9131217 -1.6044809 -0.96026456 0.59582496 0.26499712 0.40474805 0.070290774
-0.92426455 0.24705094 0.25990698 0.33557406 -0.57078195 -1.0902499 -0.3213731 0.94335145
-0.07082041 -0.21854867 -0.76188207 0.16609564 -0.13732725 -0.25979936 0.15017559 0.15660484
-0.09965508 -0.19012296 -1.4283106 0.40962258 0.15537748 -0.38341808 0.21851529 -0.21052402
0.23396833 0.73796016 -0.06374223 0.19396213 -0.20660931 -0.06468683 -0.2714388 -1.5596064
-0.3373363 0.18980625 0.07261455 0.058808383 -0.21028116 0.19138873 0.031501897 0.5347258
0.27812052 -0.1944888 0.135113 -0.45336318 0.23436193 -0.46058527 -0.46229365 3.2210593
-0.00034115967 0.07930629 -1.0827678 0.13258548 0.1324166 -1.7556466 0.105375975 -0.25538886
-0.60645664 -0.025339324 0.15302655 -0.22951588 -0.8518411 -0.07980792 -0.2792281 -0.26604098
0.06492934 -0.9015592 -1.5650901 -0.23669395 0.19827774 0.12692721 -0.1754009 0.1270096
0.24577345 -1.0753798 0.34824184 -0.049500886 -0.38612774 -0.03347174 -0.048585866 -0.121790655
0.5051837 0.2607677 0.043509543 -0.11463075 -0.1182004 0.5766846 -0.20955423 -0.16689341
0.152239 -0.0006987086 -0.70181173 -1.0711126 0.19115548 0.73324287 -0.027346458 1.718276
0.5506379 0.5836873 0.043690126 0.09400806 0.24859259 1.7281681 -0.25223964 1.7781743
-1.1214305 0.20033862 0.82317483 -1.3559707 -0.38991606 0.20896624 0.5973919 0.2488111
-0.23199686 -1.6791395 0.6007608 -0.24280037 -0.287601 4.2253547 0.16155085 -0.09158621
0.6116801 -0.95414335 -0.18585631 0.41004118 0.14094198 -1.154445 -0.027768873 -0.4471432
1.8080603 0.75895816 0.3837498 0.06137649 -0.27166274 -1.1675547 0.19900143 -0.030791555
0.20869248 -0.3035798 -0.39568394 -1.5582545 -0.68919694 -0.24850069 0.06829876 -0.29743218
0.092706434 -0.44075617 -0.03572141 0.042357642 -0.18395065 -0.40289962 0.021683492 0.31740803
-0.33883822 -0.48936376 0.6111865 0.5846344 -0.41739836 0.72732824 1.1446583 1.0526114
0.28053808 1.0345398 0.7245143 0.2655878 0.7948861 0.586202 0.23724645 0.24921124
1.4539369 0.740553 0.7670783 1.0773711 0.27962065 1.6092141 0.25129527 0.25451583
1.4224052 8.191368 0.7008696 -0.038746946 1.3610219 -0.463883 -1.6292531 -0.46603164
0.7110621 0.09787852 7.1749926 4.7906065 0.2875307 -0.44935885 -0.7746225 -0.8728888
0.1613301 3.2823794 0.34558278 -0.7500594 0.7295528 2.8797073 0.28838217 0.99348485
1.6865499 5.037478 2.898548 1.8422943 0.32544783 -0.92379045 1.0493017 1.3344201
1.3754838 0.17498814 0.22763894 -2.1900785 -0.6005935 0.2643987 0.37144837 0.2863936

l1.bias f4 [8]
00000000: 7197 a1bd 4fc9 ac3e a7ec 233e ab10 0b3f
00000010: a367 43be 1dcc 043e 7088 c93e b662 ae3e
-0.07890213 0.33747336 0.16008244 0.5432231 -0.19082503 0.12968488 0.39361906 0.34059685

l2.weight f4 [8, 8]
00000000: c203 123e 6ba9 c7be 626d ecbf e820 7d3f
00000010: 5e81 5ebf 71e1 0ac0 1769 8b3f 73d3 9ebf
00000020: aa85 17c0 3a92 333e 19e1 bc3f b1ea 9f3f
00000030: 5433 66bf 2498 773e 6c68 653e 2863 b23e
00000040: 8645 d6be 1d4e fc3d 7a2b 653f e803 15bf
00000050: 9acd 4f3f 6616 f23d 1a0c 29bd ecb4 5d3e
00000060: 1296 21be 70f6 9fbf 296e 403f c1c5 aa3e
00000070: e525 7e3f ff33 0cbf 8016 933f fb48 8d3e
00000080: 6782 6b3f 1902 91bf 89bd db3f afcd 1e3e
00000090: 5568 eb3e 076b 5bbe 95e7 623f defb 76bf
000000a0: fbd1 d53f c845 843f bacd 663f 5e66 683f
000000b0: 314f 92bf 824f 50bf 0408 9dbf 57a1 4fbf
000000c0: 759d 7e3e 6cf2 babe b976 f83d 01fc 793e
000000d0: eff6 7ebf 18db bc3f ffe7 a0bf efd6 fc3f
000000e0: 8d0c b7bf cfaf a63f e020 d5bf a92a 0ebf
000000f0: f9de b13f b1ff 8e3f 04d8 943e 6071 01c0
0.14259246 -0.38996443 -1.8470881 0.98878336 -0.8691615 -2.1700099 1.0891446 -1.2408279
-2.3675332 0.1753625 1.4756194 1.2493497 -0.8992207 0.24179131 0.22403115 0.34841275
-0.41849917 0.123195864 0.89519465 -0.58209085 0.811731 0.118206784 -0.041271307 0.21651047
-0.15779904 -1.2497082 0.7516809 0.33354 0.9927657 -0.5476684 1.1491241 0.27594742
0.91995853 -1.1328765 1.7167217 0.1550815 0.45978037 -0.21427546 0.88634616 -0.9647807
1.6704706 1.0333796 0.90157664 0.907812 -1.1430417 -0.8137132 -1.2268071 -0.8110556
0.24864753 -0.36513078 0.121320195 0.24412538 -0.9959554 1.4754362 -1.25708 1.9753093
-1.4300705 1.3022403 -1.6650658 -0.55533844 1.3896171 1.1171781 0.29071057 -2.0225449

l2.bias f4 [8]
00000000: f30a 003f cffb 943e 8cb0 b43e 7650 a7be
00000010: 3fb2 ee3c 36b1 323d e1a3 75be 227f 59bd
0.5001671 0.29098365 0.35290945 -0.32678574 0.029137729 0.043626033 -0.23988296 -0.05309976

l3.weight f4 [65, 8]
00000000: d865 25c0 aa0c 4b3c d486 13c1 220b f1bf
00000010: 3b78 12c0 fff9 e2c0 47bc a3c0 b718 28c1
00000020: d449 cbc0 d4fd 0bc0 c95b 98c0 283f c0bf
00000030: ccd9 9ac1 e4b0 cbc0 87fb 953e 5446 87c0
00000040: 2573 96bf 643f 873f 3179 2ec1 5293 88c0
00000050: a271 00c0 3b9b d3bf 1e7e 2cc1 a662 05c1
00000060: 303c 64c0 db5b adc0 f53a 0cc1 9e1e eac0
00000070: b3fb 02c0 b91b 9bc0 f242 b93f 78d0 c4c0
00000080: c7d8 96c0 d303 06c0 fa08 53c0 be43 3bc1
00000090: 7de4 babf c9a4 20c0 ba95 69c0 e8ae 91c0
000000a0: c5c6 84c0 ae51 8ec0 cd05 bcbf d22e a0c0
000000b0: fcf5 7ec1 aad8 2ac1 4ca5 07be 770a 57c0
000000c0: ed15 f4bf 8eec f3c0 9c76 4a3f 1ae6 2dc0
000000d0: cf8a b4c0 835f cdc0 740c 28c1 f7e0 a7bf
000000e0: 7a2d afc0 1bef d9c0 2139 983f 8571 bbc0
000000f0: 47e4 84c0 d987 07bf 64e9 25c1 1e63 4ac0
00000100: 9e12 03c0 5a78 2ec1 0a2f 21bf 0202 0ac1
00000110: f429 afc1 1b42 0b3f 7a02 973e 1bef 97c1
00000120: 279a f6bf 14dc 2cc1 5980 22bf 9620 0dc1
00000130: 6dbd adc1 5144 063f 6da7 923e 42f9 95c1
00000140: ad58 43c0 0384 e1be 476a 3ec0 e5d2 eec0
00000150: 9b53 51c0 1d13 f5bf fdec 10c1 4222 15c1
00000160: 5357 2a40 81e0 b2c0 0bb8 10c1 14f5 c3be
00000170: 12fd 98bf 253a 1ec1 ed59 13c1 d3a3 99c0
00000180: 07e8 03c0 8518 d2bf a542 e5c0 e5d8 12c0
00000190: 37dc 01c0 21ff 59c0 85d5 0bc1 1d64 21c1
000001a0: 62cf 93c0 0462 273f 616f b0c0 1c19 92c0
000001b0: d897 1cc1 a3c2 26c1 b9b2 45bf 57da c8c0
000001c0: 4972 92c0 c8dd 42bf 1128 49c0 ffa4 15c1
000001d0: c590 00c1 41f1 9ec0 4f75 1abf 9606 edc0
000001e0: aed0 16c1 3a4c 68be d591 38c1 3d23 b4c1
000001f0: 1431 d6be 7f01 023f 1840 1cc0 369a 42c0
00000200: 7ef7 10c1 3f9a 8abe 99b1 38c1 7c67 b3c1
00000210: d218 b8be 2530 ce3e 357d 0fc0 47fb 38c0
00000220: 9b79 c4bf 82a7 853f 38f2 fec0 cc98 bcc0
00000230: 3370 4ac1 6c8c 11c0 a636 e0bf b274 ddc0
00000240: fa84 043f 2545 2ac1 003a 9ac1 65eb 56c1
00000250: e6b2 01c1 0bc9 293f 82ba 54c0 6572 4fbe
00000260: ec82 053f b849 2ac1 6f08 99c1 9631 57c1
00000270: 8188 06c1 be6a 263f 68b5 58c0 efd2 53be
00000280: f64f 9ac0 b740 29c0 c257 f6bf 2371 98c0
00000290: 38c2 58c0 bc5c 0ac1 a8f1 8bc0 ec8a 96c0
000002a0: 160f 81c0 54e7 91c0 3511 31bd 1275 adc0
000002b0: 9ec9 fbbf 294d f2c0 d747 02c1 7691 57c0
000002c0: c5fc 39c0 155f 89bf eda0 8ac0 aa89 86c0
000002d0: d7e6 32c0 f96c f9c0 35a8 aac0 133c b2c0
000002e0: 6c9b b23e 7070 45c1 e91e b4bf 3491 843d
000002f0: 65b1 d13e e587 9fbe a817 a1c1 0853 1ebf
00000300: c254 bc3e 3298 46c1 adb4 acbf 4e3b 343e
00000310: 463a b23e 8f8b 94be 0fad a0c1 6a07 23bf
00000320: 9d93 d5c0 0693 61bf 8dc1 ccbf 9a6b b2c0
00000330: 4ef7 c6c0 a31e eabf c3e6 58c0 9dad 10c1
00000340: 454f 463f 6d49 5fc0 119d f3c0 1b0c d73e
00000350: 64fe cfc0 2c16 11c1 b508 9dc0 bd7d a1c0
00000360: f54e 6440 52d1 aebf 66fa 10c1 1a42 20c0
00000370: a9c0 0dc0 ac8c cdc0 d1d7 30c1 3449 06c1
00000380: 33d7 a740 fc17 693e 5357 07c1 8b6b 91c0
00000390: 3232 56c1 12fa fac0 69cc adc0 3b88 21c1
000003a0: 6059 82c0 d253 59bf 670c 05c0 694b bbc0
000003b0: 6aff 88c0 9f23 96c0 f5e2 3cc0 229a 39c1
000003c0: 6e20 d1bf 7ba4 c1bf 5d81 25c0 8da3 64c0
000003d0: e71f 5bc0 923e 2fc0 f4bc 9fc0 811e 2ec1
000003e0: 7ca5 4dbf 44d0 dbbf e315 29c0 a077 22c0
000003f0: a3c5 76c0 6951 b4c0 2d45 b2c0 4494 03c1
-2.584341 0.012393156 -9.220417 -1.8831522 -2.2885883 -7.093017 -5.116733 -10.506034
-6.352762 -2.1873674 -4.7612042 -1.5019274 -19.356346 -6.365343 0.29293463 -4.227335
-1.1753889 1.056622 -10.904588 -4.2679834 -2.0069356 -1.6531748 -10.78079 -8.336584
-3.5661736 -5.417463 -8.764394 -7.3162374 -2.0466125 -4.847134 1.4473555 -6.150448
-4.713962 -2.0939834 -3.297423 -11.704039 -1.4600979 -2.5100577 -3.6497636 -4.552601
-4.149264 -4.4474707 -1.468927 -5.0057154 -15.935055 -10.6778965 -0.1324665 -3.3600137
-1.9069191 -7.6226263 0.79087234 -2.7171693 -5.6419444 -6.417909 -10.50304 -1.3115529
-5.4743013 -6.8104377 1.1892434 -5.8576074 -4.152866 -0.5294166 -10.36948 -3.1622996
-2.0480113 -10.904383 -0.629624 -8.62549 -21.895485 0.54397744 0.29494077 -18.99175
-1.9265794 -10.80373 -0.63477093 -8.820456 -21.717493 0.5244799 0.2864336 -18.746708
-3.0522873 -0.4404603 -2.9752367 -7.463244 -3.2707279 -1.9146458 -9.057858 -9.320864
2.6615798 -5.5899053 -9.044932 -0.38272917 -1.1952231 -9.889195 -9.209455 -4.801248
-2.0610368 -1.6413733 -7.1643853 -2.2944882 -2.0290658 -3.4061968 -8.739629 -10.086942
-4.6190653 0.65383935 -5.513596 -4.565565 -9.787071 -10.422519 -0.77225834 -6.276653
-4.576451 -0.7611966 -3.1430705 -9.352782 -8.035344 -4.96695 -0.6033525 -7.407054
-9.425947 -0.22685328 -11.535604 -22.517206 -0.4183432 0.5078353 -2.441412 -3.0406623
-9.060423 -0.27070805 -11.543359 -22.42553 -0.35956436 0.40271106 -2.242017 -2.8903368
-1.5349611 1.0441744 -7.9670677 -5.893652 -12.652392 -2.2741957 -1.7516677 -6.920495
0.51765406 -10.641881 -19.27832 -13.432469 -8.106176 0.6632239 -3.3238835 -0.20258482
0.52152896 -10.642998 -19.129118 -13.449606 -8.408326 0.65006626 -3.3860722 -0.20685934
-4.822261 -2.6445749 -1.9245532 -4.7638106 -3.3868542 -8.64764 -4.373249 -4.704458
-4.0330915 -4.5594883 -0.0432293 -5.420541 -1.9670904 -7.571919 -8.142539 -3.3682532
-2.9060528 -1.0732142 -4.3321443 -4.2043047 -2.7953393 -7.7945523 -5.333033 -5.5698333
0.34884202 -12.339951 -1.4071933 0.06473008 0.40955654 -0.31158367 -20.13655 -0.61845446
0.36783415 -12.412157 -1.3492638 0.17600748 0.34810084 -0.29012725 -20.084501 -0.6368319
-6.674269 -0.88114965 -1.5996567 -5.575635 -6.2176886 -1.82906 -3.3890846 -9.042386
0.77464706 -3.4888566 -7.612923 0.42001423 -6.4998035 -9.067913 -4.907313 -5.046599
3.5673192 -1.365763 -9.061132 -2.5040345 -2.214884 -6.423422 -11.05269 -8.392872
5.2450194 0.22763056 -8.458819 -4.544378 -13.387255 -7.843026 -5.4312024 -10.095759
-4.07341 -0.84893525 -2.078882 -5.8529553 -4.2811785 -4.6918483 -2.9513524 -11.60013
-1.6338022 -1.512832 -2.5860207 -3.5724823 -3.4238222 -2.738194 -4.9918156 -10.882447
-0.80330634 -1.7172933 -2.6419609 -2.5385513 -3.8558128 -5.634938 -5.5709443 -8.223698

l3.bias f4 [65]
00000000: b2e0 1cc1 f6a9 d3c0 47ee 24c1 e300 e9c0
00000010: ef44 16c1 2375 cdc0 cae1 18c1 8324 25c1
00000020: 2799 8a3e 93c8 b83e 28cc 0fc1 6262 12c1
00000030: dccf 0fc1 e13f 12c1 a135 edc0 486b febd
00000040: c797 86be bd0d 0cc1 5e8d 603d a435 273e
00000050: 35e6 20c1 fe43 1ec1 9c75 1dc1 8e7d 403e
00000060: d9b8 353e 6882 16c1 333d 1dc1 62bd 12c1
00000070: 2f5e adc0 e59c ffc0 7a6e 1dc1 7492 21c1
00000080: 9619 24be 75aa 31c1 a415 d6c0 e349 653e
00000090: 98a6 94bb b4ef 2cc1 d8c7 18c1 a4e2 22c1
000000a0: 02bd d7be b2a5 bfbe 234a 03c1 bc74 853e
000000b0: 0bad 8a3e c91a 31c1 5b25 17c1 bd36 603e
000000c0: 7350 533e 6284 08c1 e840 0dc1 46ca 37c1
000000d0: 3ce8 1dc1 6da2 28c1 2efd 26c1 a6fc 1dc1
000000e0: 6037 28c1 d45f 02c1 a90b 02c1 fef5 1cc1
000000f0: 1771 11c1 21ac 09c1 92a9 2fbe 60a0 24c1
00000100: 3169 1ac1
-9.804857 -6.614497 -10.308173 -7.2813582 -9.3918295 -6.420549 -9.555124 -10.321414
0.2706997 0.36090526 -8.987343 -9.149019 -8.988247 -9.140595 -7.4127965 -0.12422806
-0.26287672 -8.753354 0.05482232 0.16329056 -10.056203 -9.8916 -9.841213 0.18797895
0.17746295 -9.406837 -9.827441 -9.171236 -5.417747 -7.987902 -9.839472 -10.098255
-0.16025385 -11.1041155 -6.6901417 0.22391467 -0.004536461 -10.808521 -9.54879 -10.180332
-0.4213639 -0.37431103 -8.2056 0.26065624 0.27085146 -11.069039 -9.44662 0.21895881
0.20636158 -8.53232 -8.828346 -11.486883 -9.869198 -10.539655 -10.436811 -9.874182
-10.513519 -8.148396 -8.127847 -9.810057 -9.09011 -8.604524 -0.1715453 -10.289154
-9.6506815
